Model summary
-------------
_________________________________________________________________
Layer (type)                 Output Shape              Param #   
=================================================================
dense_57 (Dense)             (None, 20)                140       
_________________________________________________________________
activation_43 (Activation)   (None, 20)                0         
_________________________________________________________________
dense_58 (Dense)             (None, 10)                210       
_________________________________________________________________
activation_44 (Activation)   (None, 10)                0         
_________________________________________________________________
dense_59 (Dense)             (None, 5)                 55        
_________________________________________________________________
activation_45 (Activation)   (None, 5)                 0         
_________________________________________________________________
dense_60 (Dense)             (None, 6)                 36        
=================================================================
Total params: 441
Trainable params: 441
Non-trainable params: 0
_________________________________________________________________


Cross validation
----------------
------------------------  ---  -------  --------
it-1                       32  1.04379  1.93364
it-2                       41  1.00647  1.47814
it-3                        8  1.26365  1.33563
…
