Model summary
-------------
_________________________________________________________________
Layer (type)                 Output Shape              Param #   
=================================================================
input_12 (InputLayer)        (None, 130, 15)           0         
_________________________________________________________________
conv1d_23 (Conv1D)           (None, 130, 32)           2432      
_________________________________________________________________
conv1d_24 (Conv1D)           (None, 130, 10)           970       
_________________________________________________________________
flatten_12 (Flatten)         (None, 1300)              0         
_________________________________________________________________
dense_23 (Dense)             (None, 10)                13010     
_________________________________________________________________
dense_24 (Dense)             (None, 130)               1430      
=================================================================
Total params: 17,842
Trainable params: 17,842
Non-trainable params: 0
_________________________________________________________________


Cross validation
----------------
----  ----  -------  -------
it-1  82    2.58009  3.00465
it-2  76    2.76031  2.76083
it-3  76    2.62348  3.2279
it-4  76    2.65366  2.97668
mean  77.5  2.65439  2.99252
…
