Model summary
-------------
_________________________________________________________________
Layer (type)                 Output Shape              Param #   
=================================================================
input_15 (InputLayer)        (None, 33, 3)             0         
_________________________________________________________________
conv1d_29 (Conv1D)           (None, 33, 32)            512       
_________________________________________________________________
conv1d_30 (Conv1D)           (None, 33, 10)            970       
_________________________________________________________________
flatten_15 (Flatten)         (None, 330)               0         
_________________________________________________________________
dense_29 (Dense)             (None, 10)                3310      
_________________________________________________________________
dense_30 (Dense)             (None, 33)                363       
=================================================================
Total params: 5,155
Trainable params: 5,155
Non-trainable params: 0
_________________________________________________________________


Cross validation
----------------
------------------------  ----  -------  -------
it-1                       8    1.95904  3.08392
it-2                      24    1.53581  2.09695
it-3                      21    1.58548  2.85433
…
