Model summary
-------------
____________________________________________________________________________________________________
Layer (type)                     Output Shape          Param #     Connected to                     
====================================================================================================
input_29 (InputLayer)            (None, 33, 3)         0                                            
____________________________________________________________________________________________________
conv1d_29 (Conv1D)               (None, 33, 32)        512         input_29[0][0]                   
____________________________________________________________________________________________________
conv1d_30 (Conv1D)               (None, 33, 10)        970         conv1d_29[0][0]                  
____________________________________________________________________________________________________
flatten_15 (Flatten)             (None, 330)           0           conv1d_30[0][0]                  
____________________________________________________________________________________________________
input_30 (InputLayer)            (None, 2)             0                                            
____________________________________________________________________________________________________
dense_57 (Dense)                 (None, 10)            3310        flatten_15[0][0]                 
____________________________________________________________________________________________________
dense_58 (Dense)                 (None, 5)             15          input_30[0][0]                   
____________________________________________________________________________________________________
concatenate_15 (Concatenate)     (None, 15)            0           dense_57[0][0]                   
                                                                   dense_58[0][0]                   
____________________________________________________________________________________________________
dense_59 (Dense)                 (None, 20)            320         concatenate_15[0][0]             
____________________________________________________________________________________________________
dense_60 (Dense)                 (None, 33)            693         dense_59[0][0]                   
====================================================================================================
Total params: 5,820
Trainable params: 5,820
Non-trainable params: 0
____________________________________________________________________________________________________


Cross validation
----------------
------------------------  --  -------  -------
it-1                      23  1.42583  2.58881
…
