Model summary
-------------
_________________________________________________________________
Layer (type)                 Output Shape              Param #   
=================================================================
dense_61 (Dense)             (None, 20)                140       
_________________________________________________________________
activation_46 (Activation)   (None, 20)                0         
_________________________________________________________________
dense_62 (Dense)             (None, 10)                210       
_________________________________________________________________
activation_47 (Activation)   (None, 10)                0         
_________________________________________________________________
dense_63 (Dense)             (None, 5)                 55        
_________________________________________________________________
activation_48 (Activation)   (None, 5)                 0         
_________________________________________________________________
dense_64 (Dense)             (None, 6)                 36        
=================================================================
Total params: 441
Trainable params: 441
Non-trainable params: 0
_________________________________________________________________


Cross validation
----------------
------------------------  ----  --------  ---------
it-1                      21    0.62034    1.36582
it-2                      22    0.493215   0.892913
it-3                      17    0.518439   0.918772
…
