Model summary
-------------
_________________________________________________________________
Layer (type)                 Output Shape              Param #   
=================================================================
dense_57 (Dense)             (None, 20)                140       
_________________________________________________________________
activation_43 (Activation)   (None, 20)                0         
_________________________________________________________________
dense_58 (Dense)             (None, 10)                210       
_________________________________________________________________
activation_44 (Activation)   (None, 10)                0         
_________________________________________________________________
dense_59 (Dense)             (None, 5)                 55        
_________________________________________________________________
activation_45 (Activation)   (None, 5)                 0         
_________________________________________________________________
dense_60 (Dense)             (None, 6)                 36        
=================================================================
Total params: 441
Trainable params: 441
Non-trainable params: 0
_________________________________________________________________


Cross validation
----------------
-----  --  --------  ---------
it-1   15  0.540522   1.31183
it-2   16  0.610076   1.04774
it-3   38  0.611671   0.896137
it-4   31  0.538936   0.664479
it-5   50  0.522225   0.393714
…
