Model summary
-------------
_________________________________________________________________
Layer (type)                 Output Shape              Param #   
=================================================================
dense_177 (Dense)            (None, 20)                140       
_________________________________________________________________
activation_133 (Activation)  (None, 20)                0         
_________________________________________________________________
dense_178 (Dense)            (None, 10)                210       
_________________________________________________________________
activation_134 (Activation)  (None, 10)                0         
_________________________________________________________________
dense_179 (Dense)            (None, 5)                 55        
_________________________________________________________________
activation_135 (Activation)  (None, 5)                 0         
_________________________________________________________________
dense_180 (Dense)            (None, 6)                 36        
=================================================================
Total params: 441
Trainable params: 441
Non-trainable params: 0
_________________________________________________________________


Cross validation
----------------
-----  -------  --------  ----------
it-1   26       0.900982   1.84922
it-2   19       0.80492    1.45294
it-3   27       0.84503    1.08114
it-4   24       0.824444   0.947728
…
