Model summary
-------------
_________________________________________________________________
Layer (type)                 Output Shape              Param #   
=================================================================
dense_583 (Dense)            (None, 20)                140       
_________________________________________________________________
activation_437 (Activation)  (None, 20)                0         
_________________________________________________________________
dense_584 (Dense)            (None, 10)                210       
_________________________________________________________________
activation_438 (Activation)  (None, 10)                0         
_________________________________________________________________
dense_585 (Dense)            (None, 5)                 55        
_________________________________________________________________
activation_439 (Activation)  (None, 5)                 0         
_________________________________________________________________
dense_586 (Dense)            (None, 6)                 36        
=================================================================
Total params: 441
Trainable params: 441
Non-trainable params: 0
_________________________________________________________________


Cross validation
----------------
-----  -------  -------  --------
it-1   23       1.02859  1.99291
it-2    8       1.24613  1.77031
it-3   24       1.14113  1.27388
it-4   24       1.04458  1.2117
…
