Model summary
-------------
_________________________________________________________________
Layer (type)                 Output Shape              Param #   
=================================================================
input_15 (InputLayer)        (None, 130, 3)            0         
_________________________________________________________________
conv1d_29 (Conv1D)           (None, 130, 10)           100       
_________________________________________________________________
conv1d_30 (Conv1D)           (None, 130, 10)           310       
_________________________________________________________________
flatten_15 (Flatten)         (None, 1300)              0         
_________________________________________________________________
dense_29 (Dense)             (None, 10)                13010     
_________________________________________________________________
dense_30 (Dense)             (None, 130)               1430      
=================================================================
Total params: 14,850
Trainable params: 14,850
Non-trainable params: 0
_________________________________________________________________


Cross validation
----------------
------------------------  -----  -------  -------
it-1                        5    3.9267   4.69093
it-2                        8    3.89462  4.21345
it-3                       40    3.06947  3.36369
…
