Model summary
-------------
____________________________________________________________________________________________________
Layer (type)                     Output Shape          Param #     Connected to                     
====================================================================================================
input_29 (InputLayer)            (None, 130, 3)        0                                            
____________________________________________________________________________________________________
conv1d_29 (Conv1D)               (None, 130, 10)       100         input_29[0][0]                   
____________________________________________________________________________________________________
conv1d_30 (Conv1D)               (None, 130, 10)       310         conv1d_29[0][0]                  
____________________________________________________________________________________________________
flatten_15 (Flatten)             (None, 1300)          0           conv1d_30[0][0]                  
____________________________________________________________________________________________________
input_30 (InputLayer)            (None, 2)             0                                            
____________________________________________________________________________________________________
dense_57 (Dense)                 (None, 10)            13010       flatten_15[0][0]                 
____________________________________________________________________________________________________
dense_58 (Dense)                 (None, 5)             15          input_30[0][0]                   
____________________________________________________________________________________________________
concatenate_15 (Concatenate)     (None, 15)            0           dense_57[0][0]                   
                                                                   dense_58[0][0]                   
____________________________________________________________________________________________________
dense_59 (Dense)                 (None, 20)            320         concatenate_15[0][0]             
____________________________________________________________________________________________________
dense_60 (Dense)                 (None, 130)           2730        dense_59[0][0]                   
====================================================================================================
Total params: 16,485
Trainable params: 16,485
Non-trainable params: 0
____________________________________________________________________________________________________


Cross validation
----------------
------------------------  --  -------  -------
it-1                       4  4.30667  5.73265
…
