Model summary
-------------
_________________________________________________________________
Layer (type)                 Output Shape              Param #   
=================================================================
input_15 (InputLayer)        (None, 130, 3)            0         
_________________________________________________________________
conv1d_29 (Conv1D)           (None, 130, 10)           100       
_________________________________________________________________
conv1d_30 (Conv1D)           (None, 130, 10)           310       
_________________________________________________________________
flatten_15 (Flatten)         (None, 1300)              0         
_________________________________________________________________
dense_29 (Dense)             (None, 10)                13010     
_________________________________________________________________
dense_30 (Dense)             (None, 130)               1430      
=================================================================
Total params: 14,850
Trainable params: 14,850
Non-trainable params: 0
_________________________________________________________________


Cross validation
----------------
------------------------  --  -------  -------
it-1                       4  4.32912  5.12141
it-2                      25  3.41123  4.43818
it-3                       5  4.28745  4.83636
…
