Model summary
-------------
_________________________________________________________________
Layer (type)                 Output Shape              Param #   
=================================================================
dense_57 (Dense)             (None, 20)                180       
_________________________________________________________________
activation_43 (Activation)   (None, 20)                0         
_________________________________________________________________
dense_58 (Dense)             (None, 10)                210       
_________________________________________________________________
activation_44 (Activation)   (None, 10)                0         
_________________________________________________________________
dense_59 (Dense)             (None, 5)                 55        
_________________________________________________________________
activation_45 (Activation)   (None, 5)                 0         
_________________________________________________________________
dense_60 (Dense)             (None, 6)                 36        
=================================================================
Total params: 481
Trainable params: 481
Non-trainable params: 0
_________________________________________________________________


Cross validation
----------------
------------------------  --  -------  --------
it-1                       7  1.32413  3.65853
it-2                      18  1.09067  2.35154
it-3                      25  1.13312  1.05739
…
