Model summary
-------------
____________________________________________________________________________________________________
Layer (type)                     Output Shape          Param #     Connected to                     
====================================================================================================
input_69 (InputLayer)            (None, 130, 3)        0                                            
____________________________________________________________________________________________________
conv1d_69 (Conv1D)               (None, 130, 32)       512         input_69[0][0]                   
____________________________________________________________________________________________________
conv1d_70 (Conv1D)               (None, 130, 10)       970         conv1d_69[0][0]                  
____________________________________________________________________________________________________
input_70 (InputLayer)            (None, 2)             0                                            
____________________________________________________________________________________________________
flatten_35 (Flatten)             (None, 1300)          0           conv1d_70[0][0]                  
____________________________________________________________________________________________________
dense_172 (Dense)                (None, 10)            30          input_70[0][0]                   
____________________________________________________________________________________________________
dense_171 (Dense)                (None, 10)            13010       flatten_35[0][0]                 
____________________________________________________________________________________________________
dense_173 (Dense)                (None, 10)            110         dense_172[0][0]                  
____________________________________________________________________________________________________
concatenate_35 (Concatenate)     (None, 20)            0           dense_171[0][0]                  
                                                                   dense_173[0][0]                  
____________________________________________________________________________________________________
dense_174 (Dense)                (None, 20)            420         concatenate_35[0][0]             
____________________________________________________________________________________________________
dense_175 (Dense)                (None, 130)           2730        dense_174[0][0]                  
====================================================================================================
Total params: 17,782
Trainable params: 17,782
Non-trainable params: 0
____________________________________________________________________________________________________


Cross validation
----------------
-----  -------  -------  -------
it-1   13       3.05958  3.93677
…
