Model summary
-------------
____________________________________________________________________________________________________
Layer (type)                     Output Shape          Param #     Connected to                     
====================================================================================================
input_99 (InputLayer)            (None, 130, 3)        0                                            
____________________________________________________________________________________________________
conv1d_99 (Conv1D)               (None, 130, 32)       512         input_99[0][0]                   
____________________________________________________________________________________________________
conv1d_100 (Conv1D)              (None, 130, 10)       970         conv1d_99[0][0]                  
____________________________________________________________________________________________________
input_100 (InputLayer)           (None, 2)             0                                            
____________________________________________________________________________________________________
flatten_50 (Flatten)             (None, 1300)          0           conv1d_100[0][0]                 
____________________________________________________________________________________________________
dense_247 (Dense)                (None, 10)            30          input_100[0][0]                  
____________________________________________________________________________________________________
dense_246 (Dense)                (None, 10)            13010       flatten_50[0][0]                 
____________________________________________________________________________________________________
dense_248 (Dense)                (None, 10)            110         dense_247[0][0]                  
____________________________________________________________________________________________________
concatenate_50 (Concatenate)     (None, 20)            0           dense_246[0][0]                  
                                                                   dense_248[0][0]                  
____________________________________________________________________________________________________
dense_249 (Dense)                (None, 20)            420         concatenate_50[0][0]             
____________________________________________________________________________________________________
dense_250 (Dense)                (None, 130)           2730        dense_249[0][0]                  
====================================================================================================
Total params: 17,782
Trainable params: 17,782
Non-trainable params: 0
____________________________________________________________________________________________________


Cross validation
----------------
-----  -------  -------  -------
it-1   18       3.15952  4.185
…
