Model summary
-------------
____________________________________________________________________________________________________
Layer (type)                     Output Shape          Param #     Connected to                     
====================================================================================================
input_129 (InputLayer)           (None, 130, 3)        0                                            
____________________________________________________________________________________________________
conv1d_129 (Conv1D)              (None, 130, 32)       512         input_129[0][0]                  
____________________________________________________________________________________________________
conv1d_130 (Conv1D)              (None, 130, 10)       970         conv1d_129[0][0]                 
____________________________________________________________________________________________________
input_130 (InputLayer)           (None, 2)             0                                            
____________________________________________________________________________________________________
flatten_65 (Flatten)             (None, 1300)          0           conv1d_130[0][0]                 
____________________________________________________________________________________________________
dense_322 (Dense)                (None, 10)            30          input_130[0][0]                  
____________________________________________________________________________________________________
dense_321 (Dense)                (None, 10)            13010       flatten_65[0][0]                 
____________________________________________________________________________________________________
dense_323 (Dense)                (None, 10)            110         dense_322[0][0]                  
____________________________________________________________________________________________________
concatenate_65 (Concatenate)     (None, 20)            0           dense_321[0][0]                  
                                                                   dense_323[0][0]                  
____________________________________________________________________________________________________
dense_324 (Dense)                (None, 20)            420         concatenate_65[0][0]             
____________________________________________________________________________________________________
dense_325 (Dense)                (None, 130)           2730        dense_324[0][0]                  
====================================================================================================
Total params: 17,782
Trainable params: 17,782
Non-trainable params: 0
____________________________________________________________________________________________________


Cross validation
----------------
-----  -------  -------  -------
it-1   14       3.27221  4.29836
…
