Model summary
-------------
_________________________________________________________________
Layer (type)                 Output Shape              Param #   
=================================================================
dense_57 (Dense)             (None, 20)                180       
_________________________________________________________________
activation_43 (Activation)   (None, 20)                0         
_________________________________________________________________
dense_58 (Dense)             (None, 10)                210       
_________________________________________________________________
activation_44 (Activation)   (None, 10)                0         
_________________________________________________________________
dense_59 (Dense)             (None, 5)                 55        
_________________________________________________________________
activation_45 (Activation)   (None, 5)                 0         
_________________________________________________________________
dense_60 (Dense)             (None, 6)                 36        
=================================================================
Total params: 481
Trainable params: 481
Non-trainable params: 0
_________________________________________________________________


Cross validation
----------------
------------------------  ----  --------  ----------
it-1                      16    0.928278   2.05919
it-2                      34    0.864556   1.4305
it-3                      18    0.919992   1.10409
…
