Model summary
-------------
_________________________________________________________________
Layer (type)                 Output Shape              Param #   
=================================================================
input_33 (InputLayer)        (None, 130, 3)            0         
_________________________________________________________________
conv1d_65 (Conv1D)           (None, 130, 32)           512       
_________________________________________________________________
conv1d_66 (Conv1D)           (None, 130, 10)           970       
_________________________________________________________________
flatten_33 (Flatten)         (None, 1300)              0         
_________________________________________________________________
dense_65 (Dense)             (None, 10)                13010     
_________________________________________________________________
dense_66 (Dense)             (None, 130)               1430      
=================================================================
Total params: 15,922
Trainable params: 15,922
Non-trainable params: 0
_________________________________________________________________


Cross validation
----------------
-----  -------  -------  -------
it-1   22       3.14537  3.9294
it-2    9       3.88859  4.22788
it-3   42       3.07073  3.35243
it-4   44       3.07659  3.15634
…
