Model summary
-------------
_________________________________________________________________
Layer (type)                 Output Shape              Param #   
=================================================================
dense_61 (Dense)             (None, 20)                180       
_________________________________________________________________
activation_46 (Activation)   (None, 20)                0         
_________________________________________________________________
dense_62 (Dense)             (None, 10)                210       
_________________________________________________________________
activation_47 (Activation)   (None, 10)                0         
_________________________________________________________________
dense_63 (Dense)             (None, 5)                 55        
_________________________________________________________________
activation_48 (Activation)   (None, 5)                 0         
_________________________________________________________________
dense_64 (Dense)             (None, 6)                 36        
=================================================================
Total params: 481
Trainable params: 481
Non-trainable params: 0
_________________________________________________________________


Cross validation
----------------
-----  -------  --------  ---------
it-1   19       0.504938   1.42627
it-2   15       0.475837   0.908008
it-3   17       0.463816   0.942689
it-4   24       0.465855   0.820485
…
