Model summary
-------------
_________________________________________________________________
Layer (type)                 Output Shape              Param #   
=================================================================
dense_121 (Dense)            (None, 20)                180       
_________________________________________________________________
activation_91 (Activation)   (None, 20)                0         
_________________________________________________________________
dense_122 (Dense)            (None, 10)                210       
_________________________________________________________________
activation_92 (Activation)   (None, 10)                0         
_________________________________________________________________
dense_123 (Dense)            (None, 5)                 55        
_________________________________________________________________
activation_93 (Activation)   (None, 5)                 0         
_________________________________________________________________
dense_124 (Dense)            (None, 6)                 36        
=================================================================
Total params: 481
Trainable params: 481
Non-trainable params: 0
_________________________________________________________________


Cross validation
----------------
-----  -------  --------  --------
it-1   31       0.800026  1.61956
it-2   20       0.780151  1.15803
it-3   21       0.722682  1.20331
it-4   39       0.722687  0.868133
…
