Model summary
-------------
_________________________________________________________________
Layer (type)                 Output Shape              Param #   
=================================================================
dense_181 (Dense)            (None, 20)                180       
_________________________________________________________________
activation_136 (Activation)  (None, 20)                0         
_________________________________________________________________
dense_182 (Dense)            (None, 10)                210       
_________________________________________________________________
activation_137 (Activation)  (None, 10)                0         
_________________________________________________________________
dense_183 (Dense)            (None, 5)                 55        
_________________________________________________________________
activation_138 (Activation)  (None, 5)                 0         
_________________________________________________________________
dense_184 (Dense)            (None, 6)                 36        
=================================================================
Total params: 481
Trainable params: 481
Non-trainable params: 0
_________________________________________________________________


Cross validation
----------------
-----  -------  --------  --------
it-1   17       0.91591   2.02867
it-2   19       0.870666  1.41643
it-3   26       0.909114  1.15398
it-4   21       0.908134  0.970321
…
