Model summary
-------------
_________________________________________________________________
Layer (type)                 Output Shape              Param #   
=================================================================
dense_241 (Dense)            (None, 20)                180       
_________________________________________________________________
activation_181 (Activation)  (None, 20)                0         
_________________________________________________________________
dense_242 (Dense)            (None, 10)                210       
_________________________________________________________________
activation_182 (Activation)  (None, 10)                0         
_________________________________________________________________
dense_243 (Dense)            (None, 5)                 55        
_________________________________________________________________
activation_183 (Activation)  (None, 5)                 0         
_________________________________________________________________
dense_244 (Dense)            (None, 6)                 36        
=================================================================
Total params: 481
Trainable params: 481
Non-trainable params: 0
_________________________________________________________________


Cross validation
----------------
-----  -------  --------  --------
it-1   14       1.00219   2.08965
it-2   45       0.988833  1.41424
it-3   40       0.974052  1.20383
it-4   13       1.05607   1.20867
…
