Model summary
-------------
_________________________________________________________________
Layer (type)                 Output Shape              Param #   
=================================================================
input_15 (InputLayer)        (None, 34, 3)             0         
_________________________________________________________________
conv1d_29 (Conv1D)           (None, 34, 32)            512       
_________________________________________________________________
conv1d_30 (Conv1D)           (None, 34, 10)            970       
_________________________________________________________________
flatten_15 (Flatten)         (None, 340)               0         
_________________________________________________________________
dense_29 (Dense)             (None, 10)                3410      
_________________________________________________________________
dense_30 (Dense)             (None, 34)                374       
=================================================================
Total params: 5,266
Trainable params: 5,266
Non-trainable params: 0
_________________________________________________________________


Cross validation
----------------
------------------------  ----  -------  -------
it-1                      10    2.07472  2.62661
it-2                       8    2.2373   2.67536
it-3                       8    2.21734  2.96757
…
