Model summary
-------------
_________________________________________________________________
Layer (type)                 Output Shape              Param #   
=================================================================
dense_541 (Dense)            (None, 10)                40        
_________________________________________________________________
activation_382 (Activation)  (None, 10)                0         
_________________________________________________________________
dense_542 (Dense)            (None, 5)                 55        
_________________________________________________________________
activation_383 (Activation)  (None, 5)                 0         
_________________________________________________________________
dense_543 (Dense)            (None, 5)                 30        
_________________________________________________________________
activation_384 (Activation)  (None, 5)                 0         
_________________________________________________________________
dense_544 (Dense)            (None, 1)                 6         
=================================================================
Total params: 131
Trainable params: 131
Non-trainable params: 0
_________________________________________________________________


Cross validation
----------------
-----  -------  --------  ---------
it-1    6       0.858025  2.46998
it-2   47       0.749053  3.56895
it-3    8       0.821204  2.77496
it-4   20       0.834728  0.871665
…
