Model summary
-------------
_________________________________________________________________
Layer (type)                 Output Shape              Param #   
=================================================================
dense_605 (Dense)            (None, 10)                40        
_________________________________________________________________
activation_430 (Activation)  (None, 10)                0         
_________________________________________________________________
dense_606 (Dense)            (None, 5)                 55        
_________________________________________________________________
activation_431 (Activation)  (None, 5)                 0         
_________________________________________________________________
dense_607 (Dense)            (None, 5)                 30        
_________________________________________________________________
activation_432 (Activation)  (None, 5)                 0         
_________________________________________________________________
dense_608 (Dense)            (None, 1)                 6         
=================================================================
Total params: 131
Trainable params: 131
Non-trainable params: 0
_________________________________________________________________


Cross validation
----------------
-----  -------  -------  ---------
it-1   13       1.46718  0.0570467
it-2   48       1.12394  4.4826
it-3   29       1.09153  3.01064
it-4   23       1.22018  0.96627
…
