Model summary
-------------
_________________________________________________________________
Layer (type)                 Output Shape              Param #   
=================================================================
dense_669 (Dense)            (None, 10)                40        
_________________________________________________________________
activation_478 (Activation)  (None, 10)                0         
_________________________________________________________________
dense_670 (Dense)            (None, 5)                 55        
_________________________________________________________________
activation_479 (Activation)  (None, 5)                 0         
_________________________________________________________________
dense_671 (Dense)            (None, 5)                 30        
_________________________________________________________________
activation_480 (Activation)  (None, 5)                 0         
_________________________________________________________________
dense_672 (Dense)            (None, 1)                 6         
=================================================================
Total params: 131
Trainable params: 131
Non-trainable params: 0
_________________________________________________________________


Cross validation
----------------
-----  -------  -------  --------
it-1   11       1.44509  0.123809
it-2   31       1.37864  4.22212
it-3   49       1.33665  3.19876
it-4   18       1.49682  1.00666
…
