Model summary
-------------
_________________________________________________________________
Layer (type)                 Output Shape              Param #   
=================================================================
dense_733 (Dense)            (None, 10)                40        
_________________________________________________________________
activation_526 (Activation)  (None, 10)                0         
_________________________________________________________________
dense_734 (Dense)            (None, 5)                 55        
_________________________________________________________________
activation_527 (Activation)  (None, 5)                 0         
_________________________________________________________________
dense_735 (Dense)            (None, 5)                 30        
_________________________________________________________________
activation_528 (Activation)  (None, 5)                 0         
_________________________________________________________________
dense_736 (Dense)            (None, 1)                 6         
=================================================================
Total params: 131
Trainable params: 131
Non-trainable params: 0
_________________________________________________________________


Cross validation
----------------
-----  -------  -------  --------
it-1   18       1.56337  0.861772
it-2   37       1.50107  4.1379
it-3   26       1.451    3.56563
it-4   15       1.60473  1.07119
…
